model.pth (torch, 71348 bytes, 6 tensors)

fc1.weight f4 [128, 3]
00000000: 4a3a 4ebe 7ce3 2d3e 947d 80bc 0853 21be
00000010: 9492 26bf 09e1 223f e62e 8a3b 5e55 023f
00000020: 1983 56be 40ee 343c 7f11 0bbf 50b4 21bd
00000030: ad9c 95be 10c0 bcbd bae2 05be 218b 13bf
00000040: 90fd 41bd 2053 9dbc de3c 5bbe f410 02bf
00000050: cc82 293e bcb7 0ebf adb5 283e 2b63 cb3e
00000060: a75d fc3d 72d0 c9be da91 b1bd 6065 edbc
00000070: ef1a 92be fa14 0ebe 0346 783e 5350 e5bc
00000080: a7e3 f0be e5df a5be faf0 2e3c e21b e23e
00000090: 735f 053e 21fe 163e 1052 b7be 2078 3a3e
000000a0: 59c0 263e ad9b fdbe 0e7f a4be b30e b6be
000000b0: d42c 0b3e f04c 09be 506f 673d 1c4b bbbe
000000c0: ec33 8abe f9e5 b93d 15a7 383e 0348 f0bd
000000d0: 426c e9bd e2d5 743e 0924 d13e 024f e6be
000000e0: d176 e7be b545 e5be 7227 b5be 8c1d d1bd
000000f0: 5846 f8be 8ca3 8b3e d197 a6be 8593 0ebd
00000100: 7097 513e 76f4 d23d 900e 1fbd 4c69 f8bd
00000110: c052 23bd 8c47 2abe c92d 2c3e f30b 1b3e
00000120: 940d 573e 916e 08bf 8caf 84be 3704 763e
00000130: 3fab eb3d a9ab 1cbf e2be 15be f4a8 aabe
00000140: 00e6 c4bb 5874 183c 76b1 8c3e 0699 ebbd
00000150: 0200 1fbf 2675 043f 5b69 31bd 5141 c03e
00000160: bb05 30bf 56a5 f0be 2e1f b7be 1df6 11bf
00000170: c02b 753c 670e 3f3e 0831 44be 1e1f b9be
00000180: 7076 a23d 7885 883d c275 0fbf 5ca9 a03d
00000190: a957 b2bd 361d 893d f480 e33e 5079 aa3d
000001a0: a583 2dbe 14d8 52be 9978 8f3d 0cbe ffbb
000001b0: cacf 79be ae0f 7dbe 7dcf a8be c1cb 1bbf
000001c0: bb13 1ebe e07f c63e 1ab2 bdbe 19c7 9cbe
000001d0: 986c 00be 2f92 123c 432f 4fbd 3fba d23b
000001e0: 551a e7be 580f fdbe 8774 cd3e 5fb9 00bf
000001f0: 8fcf eabe 3e85 d33e c246 f13e c9ed d0be
00000200: 324b 253d 7185 dabd 8c70 ba3e 39cc 93bd
00000210: feb3 bfbe 0023 0ebd 8e92 eebe 12dc 2e3e
00000220: 7c13 fcbe a2d4 033e ca5d 0dbf 2750 13bf
00000230: 1389 c9be d78a e03e fb5c 8bbe a938 4a3e
00000240: 0cc0 1abf 4b22 003f 1180 1fbd 0040 85be
00000250: bc47 8d3e 7ae4 97be 0ea2 14be 4661 05be
00000260: 21f6 eb3d e731 0a3e e392 bbbd 47fa 61be
00000270: 1a14 e03e e11c adbe d920 153e c4f3 a4bd
00000280: e82d 3fbe d6c3 38be 5c4f db3e 48f7 24bf
00000290: 698c 34bf 9a47 28be 9c84 d4be 90f6 093d
000002a0: 0424 5dbe 7fe3 28bf 0e8e c83e 1e04 39be
000002b0: 202c 39bd 28e5 52be f7da ecbe da39 e23d
000002c0: 478f 773d e6e6 953e 1d32 c5be e716 c0be
000002d0: 0001 0b3e ca9a 07bf f812 d0be 6e51 e9be
000002e0: f055 ff3d f0df f0be 1cb0 3ebe 8797 5fbe
000002f0: fe52 db3e bdd4 f6be 9a8b 18be d001 563e
00000300: 8258 38be 4133 073e 4415 6c3a 645c a23e
00000310: 812a d7be 9119 fcbe 4568 e8be e67c 09bf
00000320: 86ed bdbe da14 acbe 80d9 093e 5241 d2be
00000330: 7a78 be3e a62c 1b3f 6d46 13bf d278 57be
00000340: 7ae7 04bf 103f 1a3e 9250 6d3e 0584 09bf
00000350: 34c2 d63e bbb3 bf3e 7737 bdbd b9c4 d13e
00000360: a04e 883e d0eb 433e 3415 47be e269 2ebf
00000370: 304e 433e 9822 8abd f632 32bf 608a 89be
00000380: c21d b33e ab86 843e 6142 bebe 8708 e0be
00000390: 40e9 663c 3ced 7abe fcd7 32be 69a7 8f3e
000003a0: ca85 0b3e cb36 2abf fc3b 0ebf c488 0ebf
000003b0: 6815 583e ccbb a6bd 002f 64bb 0010 cdb9
000003c0: 954b e8be 385e 173e f17f 10bf 30c3 d2bd
000003d0: bec4 01bf 3837 dc3d 3323 813d 3d70 07bf
000003e0: 46a1 743d 28e3 3dbe 146e d3bd 209d 1abd
000003f0: 87d4 94be 55e6 803e 2595 6ebd 4e67 28be
-0.20139423 0.1698131 -0.01568488 -0.1575433 -0.6506741 0.63624626 0.0042170165 0.5091151
-0.20948447 0.011043131 -0.5432357 -0.0394786 -0.29221097 -0.092163205 -0.1307477 -0.5763417
-0.047360957 -0.019204676 -0.21409938 -0.5080712 0.16553801 -0.55749106 0.16475554 0.39724097
0.1232255 -0.39416844 -0.08670397 -0.028979003 -0.28536174 -0.1387519 0.24245457 -0.027992403
-0.47048685 -0.3239738 0.0106775705 0.44161898 0.13024692 0.1474538 -0.35804796 0.18209887
0.16284312 -0.49532834 -0.32128185 -0.3555809 0.1359132 -0.13408256 0.05650264 -0.3658074
-0.26992738 0.09077067 0.18032487 -0.11732485 -0.11397602 0.23909715 0.40847805 -0.44982153
-0.45207837 -0.44779745 -0.35381657 -0.10210714 -0.48491168 0.27273214 -0.32537702 -0.034808654
0.20467925 0.103005335 -0.038832247 -0.12129459 -0.03987384 -0.16628855 0.1681434 0.15141277
0.21001273 -0.5329371 -0.25915182 0.24025045 0.11507272 -0.6119943 -0.14623597 -0.33332026
-0.0060088634 0.009305082 0.27479142 -0.11503796 -0.62109387 0.51741254 -0.043313365 0.37549832
-0.68758744 -0.4700114 -0.35765976 -0.57016164 0.014964044 0.18657838 -0.19159329 -0.36156553
0.079327464 0.06666082 -0.5603906 0.07844803 -0.08708126 0.06695025 0.4443432 0.0832392
-0.1694475 -0.2059024 0.07005424 -0.007804638 -0.24395671 -0.24713013 -0.329708 -0.6085778
-0.15437214 0.38769436 -0.37049943 -0.3062065 -0.12541425 0.008945986 -0.05058218 0.0064308937
-0.45137277 -0.4942577 0.40127966 -0.50282854 -0.4586148 0.41312593 0.47124296 -0.40806416
0.040354915 -0.10669983 0.3641399 -0.07216687 -0.3744201 -0.034701347 -0.46596187 0.17076138
-0.49233615 0.12874082 -0.55221236 -0.5754418 -0.39362392 0.43855926 -0.27219376 0.19748177
-0.6044929 0.50052327 -0.038940493 -0.2602539 0.2759379 -0.296665 -0.14514944 -0.13025388
0.11521555 0.13495599 -0.09158876 -0.2206813 0.43765336 -0.33811095 0.14563312 -0.08054307
-0.18669856 -0.18043455 0.42833984 -0.6443982 -0.7052675 -0.16433564 -0.41507423 0.033682406
-0.2159577 -0.6597213 0.3917088 -0.18067977 -0.045208097 -0.20595229 -0.46260807 0.110461906
0.060439374 0.29277724 -0.38514796 -0.37517473 0.135746 -0.52970564 -0.40639472 -0.45569938
0.12467563 -0.4704585 -0.18621868 -0.21835147 0.42836756 -0.4820918 -0.14897004 0.20899129
-0.18002513 0.13203146 0.00090058544 0.31711113 -0.42024615 -0.49238256 -0.4539205 -0.53706205
-0.37095279 -0.33609658 0.13461876 -0.4106546 0.3720129 0.60615003 -0.57529336 -0.21042183
-0.51915705 0.15063119 0.23175266 -0.5371707 0.4194504 0.3744181 -0.09239095 0.409704
0.26622486 0.19132924 -0.19441682 -0.68130314 0.19072795 -0.067448795 -0.6960901 -0.26863384
0.3498364 0.25883994 -0.37160018 -0.43756506 0.014093697 -0.2450456 -0.17465204 0.2805741
0.13625255 -0.6648986 -0.5556028 -0.5567744 0.21101916 -0.08141288 -0.0034818053 -0.00039112568
-0.45370165 0.14782035 -0.56445223 -0.10291135 -0.5069083 0.1075272 0.06305542 -0.5290564
0.059724115 -0.18543684 -0.1032373 -0.037747502 -0.29068395 0.2517573 -0.058247704 -0.16445658

fc1.bias f4 [128]
00000000: 1a3d 953e c431 723c c6b1 ea3d f097 4bbe
00000010: e004 dfbc 2ccb f33e 1a38 adbe f4c2 3a3e
00000020: 99ec 883e f441 8cbe 9e1c fe3d 5ad0 9e3d
00000030: 1654 d6be 4745 f2be dcd4 4cbe 40d5 bebc
00000040: 7d14 3bbf bf29 e33e faec 37be 301f 3abd
00000050: 58ab 553e 38b6 d4be b0a4 57bd 6adf cc3d
00000060: 2bdc d7be b009 f8be 4c45 053f 7bd7 36bf
00000070: fabe ec3e 49f9 103e 8895 e83d e3cc fe3d
00000080: fa10 96be 135a d2be b6fb 123e c71e 0cbf
00000090: 00a4 f83d 90f8 e93d e413 efbd 6304 58bf
000000a0: 67a0 ce3e c775 a5be 9555 12bf 2e95 3abd
000000b0: 9017 693e fbcd ff39 7069 1dbd 7bec 983e
000000c0: 9a4c f6bc 8e5a 66be 5c40 14be 7165 a93e
000000d0: f7d8 debe ded5 b73e da45 dbbe 249f 4d3e
000000e0: 59ee cb3e 4124 89be ea4f 82bf 933e 70bf
000000f0: 2c36 27be 28a4 b03d 70a5 cebd ec34 023f
00000100: 2b5d 8dbe caf4 a1be 56ae ce3e 0847 5b3e
00000110: d705 31be 4c5d b13e 2791 1f3d fc0f b1be
00000120: 919a 71be 7ab5 03bc 948a efbe d39f e73e
00000130: 0034 13bf 7599 cbbd 1625 e5be 60b5 59bd
00000140: 8211 efbe b4e5 28be 8b84 35be 0ca2 3e3e
00000150: fc3b 3ebf ee96 fabe 2652 a8bc 5e02 c9be
00000160: d485 94be 9053 a7bd 44ad 633e 0246 b63e
00000170: fcff e9bd d862 fa3d 3ec9 f9be 19b8 6abe
00000180: 401c 333c 3bf2 f9be c854 d83d ca9e f0be
00000190: d0c0 debe cf38 b03e 7234 aabe 7bb0 8e3e
000001a0: 1d91 efbe 10d0 7dbe d2cd a1be 9185 14be
000001b0: 8475 c0bd bf03 64be d060 3abf 3f76 9a3f
000001c0: c493 df3e 20cf de3c 07ca 5fbe e2b9 04be
000001d0: a216 d53e a473 e83e 91fb 4abf f0e1 76bd
000001e0: c031 d53c ca40 d13e b1c3 88be faed 123f
000001f0: 00c8 50bb 4789 083f fbe7 6ebc 7082 01bf
0.2914818 0.014782373 0.11459689 -0.19882178 -0.027224004 0.47615945 -0.33831865 0.18238431
0.2674301 -0.27394068 0.12407802 0.07754584 -0.41861027 -0.4731848 -0.20003074 -0.023295045
-0.7307814 0.44367787 -0.17961493 -0.0454399 0.20866144 -0.41545272 -0.052647293 0.1000355
-0.42160162 -0.4844489 0.52058864 -0.7142255 0.46239454 0.14157595 0.11356646 0.12441423
-0.29309827 -0.41084346 0.14353833 -0.5473446 0.121406555 0.11424363 -0.11673716 -0.84381694
0.40356752 -0.3231642 -0.5716184 -0.045552425 0.22762895 0.00048790858 -0.03843063 0.2986792
-0.030065823 -0.22495481 -0.14477676 0.33085206 -0.43524906 0.35905355 -0.4282673 0.20080239
0.39830282 -0.26785472 -1.0180638 -0.9384548 -0.16329259 0.0862506 -0.100901484 0.50862
-0.27610144 -0.31632072 0.40367383 0.21413815 -0.17287384 0.34641492 0.038956787 -0.34582508
-0.23594119 -0.008038873 -0.46785414 0.45239124 -0.5750122 -0.09941379 -0.44754857 -0.05315149
-0.46693045 -0.16493875 -0.17726342 0.18616503 -0.7431028 -0.48943275 -0.020546984 -0.3925962
-0.29008353 -0.08170235 0.22234064 0.35600287 -0.11425778 0.12225884 -0.48786348 -0.2292179
0.010932028 -0.4881762 0.10563046 -0.46996146 -0.4350648 0.34418342 -0.33243138 0.2786902
-0.467904 -0.24786401 -0.3160234 -0.14504077 -0.09397414 -0.22267054 -0.72803974 1.2067336
0.43667424 0.027198374 -0.21854411 -0.12961534 0.4161883 0.45400727 -0.7929011 -0.060274065
0.0260247 0.40869743 -0.267118 0.57394373 -0.003185749 0.5333447 -0.014581676 -0.50589657

fc2.weight f4 [128, 128]
00000000: 0ac1 32bd a738 21bf 0562 103d 1aab 663d
00000010: 11a8 b23d a792 8d3d 7822 42bc 869a 893d
00000020: 5d43 d4bd 048f c0bc 83f8 ee3b 39ab 8b3d
00000030: 5c9a 2dbe 8c0b 133f 2032 e5bb b919 98bd
00000040: a530 61bd 8629 793c 5a07 08bf 084a 0ebd
00000050: 8327 abbd 9dd2 da3c 4263 653d 625c 7dbd
00000060: 6af7 a3be de1e e23e ce26 313d eb83 473d
00000070: da2d e4bd 12fd 49be 1293 6c3d d7f5 a9bd
00000080: 8a95 8bbd a0c9 623d b32e 10bc a075 e63c
00000090: 0255 233d 0ab6 abbb c008 c2bc afc6 91bd
000000a0: 350a 22bf 852b d4bd c279 38be 7fb2 9f3d
000000b0: 5526 873d 5c4c f8bd d23f 373d 1a44 463c
000000c0: 71a2 81bd b80b 4f3c 54b3 cabd 4f50 56bd
000000d0: 6c35 d7bd 20fc e4bc fc46 613e d995 1cbd
000000e0: 07b6 4bbe 3b29 b13d 1415 63bc 24be a5bc
000000f0: 90ed 033d 2e83 083d 98c9 43bd 0018 87bd
00000100: 5527 553d c479 b23d 26a7 163d 598d b2bd
00000110: bf14 ee3c 62ec 2b3d 54a1 d2bc 4a2f 683c
00000120: e5b8 4f3d 2c66 8ebc 2f70 1cbe 80c4 4cbb
00000130: 206a 8d3b eaaf df3e 300c a5bc 7d21 883d
00000140: 4dbf 803d 1b5b 22bd e21b 7d3d 80d8 c9ba
00000150: 475a 893d ca35 84bd 45b2 573e 44df 023d
00000160: 35ec 0dbe 6ed7 71bd e031 ea3c a4c4 cbbc
00000170: 88bc 7abd dada 5c3d 911e b3bd 0650 01be
00000180: 0037 ee3b 1a1b 743d d878 93bd 9874 623c
00000190: 898d 0abd a660 e13d b3e2 303c bb1e 1ebf
000001a0: 00a3 833c 35a8 b4bd c987 27bf e95e 9abe
000001b0: 563e 0d3d 318b 0d3d 22da 96bb 7be5 66be
000001c0: 9458 45bd be90 debc da10 c13d 31c2 34bd
000001d0: 0d71 90bc a9e5 ae3d 05e7 223d 5cd2 96bd
000001e0: c251 4d3d 8f97 d8bd 864a 1c3d e1be a5bd
000001f0: e4a5 82bd 4a59 b3bc 970a 90bd d750 31bd
00000200: 8afd 55be bce0 c73c 5405 d3bd 71c9 aa3d
00000210: 4269 85bd 4ffb 33bd 952a 0fbd 7830 64be
00000220: 1c01 793d 8a8b 523d 7a59 27bd 2a54 9abe
00000230: fdac c4bd 2945 ca3d 465a 593d e6f6 d9bc
00000240: 54ea 23bd 39bf efbe b0fd b7bd 0834 a13c
00000250: e9a4 8c3d e3cb 89bd 00d7 67bc 041e 91bd
00000260: 89f6 dbbc 38f4 8f3d 8030 193c d9c7 d8bd
00000270: 2023 7ebe a6f2 b23d 743e 9e3c 2613 86bc
00000280: 4c02 bfbc b15e 933c d8ac 323d 524a 67bd
00000290: 6c5a df3c 1e95 4ebe 3570 b13d 1a35 03be
000002a0: b7fa aebd 32a0 2abe c172 713d e436 4cbe
000002b0: f8c1 77bc f19b 04bb 28cd 6fbc 4b63 ff3c
000002c0: 5676 0cbd 52c9 3b3d de6a edbd f472 523c
000002d0: 57d9 b43c b620 773d 1f3a 4a3c 0000 8fb9
000002e0: 425a 6fbd 6eb8 483d aaf9 a5bd e546 14bd
000002f0: 5b4a 0fbd 6e82 3f3d 0f0d 3abe 65a9 443c
00000300: 0ae3 fbbd 872f 99bc 3afb 23bd 9119 9a3d
00000310: a8b1 383d 583f 20bc 2771 0b3c 66eb 043d
00000320: 59c0 eebd f563 89bd 5223 a2bd 53f1 833c
00000330: 6eec 6e3d 3200 a13d 802d e3bc e452 6dbd
00000340: 8022 913c e84d 5fbc 833d af3d 5560 853d
00000350: 05fa 41bc 48e3 f63c d888 be3d fb8a ddbd
00000360: f9b8 3dbc ec53 013d 4464 0bbd 205b a9bb
00000370: 3842 adbd e887 c0bc 1872 97bc 4845 9abd
00000380: b968 a63d 91b1 af3d e0ac 8fbd 208d 73bb
00000390: b250 373d 93ac 363c 0b4b b4bd 9729 1ebf
000003a0: 504f 90bd cee8 6a3d 6784 eebe 86f9 7fbd
000003b0: 5155 803d 62e0 29bf 51dc 03be edbf a9bd
000003c0: 8cb5 f5bc ab23 adbd f6bd 0abe 5355 fdbd
000003d0: d6d2 8cbd 9a2c 74bd ae36 5d3c 7315 9a3d
000003e0: ccfd 003d 4102 75bd e8d1 38bd f4b2 8dbe
000003f0: 787f 7fbc 0636 3b3d dbc9 f23c 6ca9 c6bc
-0.043641128 -0.6297707 0.03524973 0.05631552 0.087234624 0.06912737 -0.011849038 0.06718926
-0.10364411 -0.023505695 0.0072928085 0.068197675 -0.16953415 0.57439494 -0.0069945008 -0.07426781
-0.05497803 0.015207654 -0.5313622 -0.03473857 -0.08357146 0.026711756 0.056002863 -0.06185568
-0.320247 0.44164175 0.043249898 0.04870979 -0.11141558 -0.19725445 0.057757445 -0.08298843
-0.06815632 0.055368066 -0.008800196 0.02813226 0.03987599 -0.0052402066 -0.023685813 -0.07117974
-0.63296825 -0.10359863 -0.18015197 0.07797717 0.06599108 -0.121239394 0.0447386 0.012101198
-0.06329811 0.012637071 -0.098974854 -0.052322682 -0.10508236 -0.027952254 0.21999735 -0.038228843
-0.19893657 0.08650442 -0.013860006 -0.020232268 0.03220898 0.033328228 -0.047799677 -0.065963745
0.052039463 0.08714631 0.0367805 -0.08718366 0.029062627 0.04197348 -0.025711693 0.014171431
0.05071344 -0.017382704 -0.1527717 -0.0031245053 0.0043156296 0.436889 -0.020147413 0.066470124
0.06286488 -0.039637666 0.06179417 -0.0015399605 0.06706672 -0.06455572 0.21064098 0.031951204
-0.13859637 -0.05904334 0.028588235 -0.024874039 -0.061214954 0.05391965 -0.087460645 -0.12628183
0.00726974 0.05959616 -0.072007835 0.013821743 -0.033826385 0.11004762 0.010796237 -0.6176564
0.016068935 -0.088211454 -0.65441567 -0.30150536 0.034483276 0.03455657 -0.00460364 -0.22548477
-0.048180178 -0.027168628 0.09427042 -0.044130508 -0.017632032 0.08539898 0.0397711 -0.073643416
0.0501268 -0.105757825 0.03815701 -0.08093048 -0.063792974 -0.021893162 -0.0703327 -0.043289986
-0.20897499 0.024399154 -0.10303751 0.08339203 -0.06514217 -0.04394084 -0.03495272 -0.22284114
0.060792074 0.051402606 -0.040856816 -0.30142337 -0.096033074 0.098764725 0.053064607 -0.026606988
-0.040018395 -0.4682558 -0.08983934 0.01967813 0.068673916 -0.067283414 -0.014150381 -0.07085803
-0.026850956 0.07029003 0.009349942 -0.10584993 -0.24818087 0.08737688 0.01931689 -0.016366553
-0.023316525 0.017989488 0.043621868 -0.05646736 0.027264796 -0.20174071 0.0866398 -0.12813225
-0.08543914 -0.16662672 0.05894733 -0.19942814 -0.015121929 -0.002023455 -0.014636315 0.031175276
-0.03429254 0.04584629 -0.11592649 0.01284479 0.022076292 0.06033393 0.012342959 -0.00027275085
-0.058435686 0.04900401 -0.0810426 -0.036200423 -0.03498302 0.046755247 -0.18169044 0.012003277
-0.12299164 -0.01869942 -0.04003451 0.07524408 0.0450913 -0.009780727 0.008510864 0.032451056
-0.11657781 -0.067085184 -0.07916893 0.016106283 0.058330946 0.078613654 -0.027731657 -0.05794038
0.017716646 -0.013629414 0.08556654 0.065125145 -0.011839394 0.030137673 0.093034446 -0.10817524
-0.011579745 0.031574175 -0.034031168 -0.0051683336 -0.08459896 -0.023502305 -0.018487021 -0.075327456
0.08125443 0.0857879 -0.07015395 -0.0037162974 0.04475469 0.011149543 -0.08803376 -0.6178221
-0.07046378 0.057350926 -0.4658539 -0.062493823 0.06266273 -0.66358006 -0.12877013 -0.0828856
-0.029993795 -0.08454069 -0.13549027 -0.1236979 -0.06876151 -0.059612848 0.013501806 0.07523622
0.03149204 -0.059816603 -0.045122057 -0.27675593 -0.015594356 0.045705818 0.029637268 -0.024250709

fc2.bias f4 [128]
00000000: 8ea1 fabd 55c9 d4bd 09ef 293e 4148 2fbe
00000010: 116a 313d 2f5f 9ebd 3754 c03c 7423 b9bc
00000020: e5fb bf3d e705 c73d c355 11be 5a58 85bc
00000030: 5253 0b3e a0a1 3bbc 36d3 803d 820f 2c3e
00000040: 6631 df3c 5ec5 d13c 2af6 0e3e e7b1 34bc
00000050: a7cb 343c 6790 d6bd f56e 44bd 6913 45bd
00000060: b4c9 a4bc 8008 e83d edcc f53c 864f debb
00000070: 5b99 ab3c decb 02be 14c2 03be dece 443d
00000080: 4129 5fbd 2fea 6f3d d704 38bd 8409 033e
00000090: cf08 91bd 1805 c43c 4d99 e53d 0572 d7bd
000000a0: dcb9 80bd 678b ce3c 60ec cd3b 3b54 193e
000000b0: c970 d1bd a8f4 0d3d fc92 8abd 46d9 9cbd
000000c0: 1d24 833c 1741 363e 0645 44bd 66f2 ddbd
000000d0: 1a9d 523d d71b 4e3e 5f17 61bd f487 063c
000000e0: bee5 88bb 6b3e 8bbd 5d64 003e 8c4a 013d
000000f0: 5760 fabc ee40 6cbd e1e0 a8bd 75f9 e4bc
00000100: ae87 08be 6cb4 debd e223 803d a374 b43d
00000110: d1b3 9f3b 63fd fbbc 3e94 98bd 0f8c 3ebd
00000120: c539 683d 99ca 103e 65f0 553c d297 313d
00000130: 9658 2e3e e97c d13b 93e1 25bd 17d0 e7bc
00000140: 1e43 29bd 4a48 4f3e 7e17 463c 023d 34bd
00000150: c343 c5bc e0ac 42bd d628 a93d bfc8 95bc
00000160: f38d 42bc 4051 02be 9daa ab3c dc93 cb3c
00000170: dcdd a2bc d53d c93d 5f3e 0bbd f817 443c
00000180: 1f6d f5bc 6448 13be bcbf 04bd b634 303d
00000190: 15a9 1d3d f114 4bbc 4385 a63d 8843 7ebd
000001a0: bf54 6dbd 26b6 90bd 35d2 85bd ccd1 8d3c
000001b0: 03af 26bd de99 633d 98e2 14be c721 593e
000001c0: 0186 913c 1c7d ef3b 3c81 8dbd 239f 0c3e
000001d0: 96eb afbb a10b 60bd 3212 28bd 8589 483c
000001e0: a060 d5bc d41f 653d 092f 91be a210 43bd
000001f0: 0849 683c 837b 193e 6693 003e ceb9 80bd
-0.12237845 -0.103899635 0.16595091 -0.17117406 0.043314043 -0.077329986 0.023477657 -0.022599913
0.09374217 0.09717923 -0.14192872 -0.01627748 0.13606003 -0.011452109 0.06290285 0.16802791
0.027245235 0.025606807 0.13961092 -0.011028743 0.011034883 -0.10476761 -0.04795738 -0.048114214
-0.02011571 0.11329746 0.030004943 -0.0067843823 0.020947149 -0.12773082 -0.12867004 0.048048846
-0.054482702 0.058572944 -0.04492649 0.12796599 -0.07081758 0.02392821 0.112108804 -0.105197944
-0.0628545 0.025212957 0.0062842816 0.14973538 -0.1022659 0.03465715 -0.06766316 -0.07658629
0.016008431 0.17798267 -0.04791739 -0.108372495 0.051419355 0.20127808 -0.05495393 0.008211125
-0.004177778 -0.06799015 0.12538286 0.031565234 -0.030563517 -0.05767911 -0.08246017 -0.027950982
-0.13333008 -0.108742565 0.06256844 0.08811309 0.0048737307 -0.030760473 -0.0745015 -0.04652029
0.05669572 0.14139785 0.013057803 0.043357678 0.1702598 0.0063930643 -0.040498327 -0.028297467
-0.041323774 0.2024242 0.012090562 -0.044003494 -0.024080163 -0.047528148 0.08259742 -0.0182842
-0.011874664 -0.12726307 0.020955378 0.024850778 -0.019881181 0.09826247 -0.03399503 0.011968605
-0.02995926 -0.14383084 -0.032409415 0.04301902 0.038491327 -0.01239513 0.081308864 -0.06207612
-0.05794215 -0.07065992 -0.065342344 0.017311953 -0.040694248 0.05556666 -0.14539564 0.21204291
0.017764093 0.0073086154 -0.06909415 0.13732581 -0.00536866 -0.05469859 -0.041032977 0.012239818
-0.026047051 0.055938557 -0.28356197 -0.047623284 0.014177568 0.14988522 0.12556228 -0.062854394

fc3.weight f4 [2, 128]
00000000: 4582 42be c0ef c8bd a57b 6a3d 3919 ccbe
00000010: ad8e 033d 64b6 99bd 7ca3 493d aa2c a3bc
00000020: f605 c13d dc11 b3bd aa21 56bd 901e 9d3b
00000030: 829c a13d d8e7 6b3b 9f37 a73a f9d0 9e3e
00000040: 6ad8 5fbb 2647 9d3c fe28 e73d cf9d 4f3e
00000050: c6a5 02be 6ddd eb3e 268b 2e3d 33f4 0bbf
00000060: da5f 17bb 46d1 9b3d 9378 f5be 2958 92bc
00000070: 7591 91bd b620 3ebe 6527 36be b5f1 9b3d
00000080: 30cc c93b d217 8dbe 861d 09ba a4f7 aa3d
00000090: 7fdd 56bd 905c 85be 1efa b03d caac 57bd
000000a0: 57c8 923e 5ef1 10be bf7d aa3d 846b 5dbe
000000b0: e7a1 e03c c249 2ebe 3f78 25bd 66d9 483c
000000c0: c590 88bd b869 a63d 8f23 9dbd cd5f 3cbe
000000d0: 9ce4 023d 62f8 2b3e fbdf 2bbd 55e5 803d
000000e0: 7fd1 423c 9093 57bc 2ba5 09be aa0a 713e
000000f0: dd7f 4bbd 7da3 353d 1fe4 af3e 8a6e c5b9
00000100: 3b0f 04be f45b bdbc 697d 923c a53e a93d
00000110: 6fae 41ba 22c9 0e3a 62e8 42be 5601 3abe
00000120: 2339 82bc 4885 cc3d 9c2b 0b3c a4c5 a83c
00000130: f8b1 db3b db5a a5bb e934 063e b4fc 123e
00000140: 5859 213c fff4 f53c 1243 79bd 22ec 823c
00000150: 2442 46bf 7e76 babe 4965 073d cb04 84bd
00000160: b5ca b1be 82e5 a8be 40a6 263e 62de 413b
00000170: df86 813e 2903 4bbe 4379 bbba 7311 b1bd
00000180: 0d0b 553d af3d cb3e 0cdc 34b9 f466 ad3c
00000190: b3ed 09bf bcd3 e1be c5d2 d93c 50d9 24bf
000001a0: 95f4 7e3e 805e 753d b3cb 8238 4010 01bb
000001b0: 3c99 5a3e 155d 123c 020a 02bf 9a29 293d
000001c0: fc62 b0bd 12d6 ee3d 3384 c33d 72e5 353e
000001d0: 40a2 aebc 2416 ae3c b6e1 30bd 2410 20be
000001e0: 5252 cc3c 213f 1739 47af 7b3e 03d8 b03d
000001f0: d0a8 98bc 3933 ab3e 7427 873a 6978 be3a
00000200: bba4 95bc 40ee 91bc 556c 423d a965 183d
00000210: 4b23 903d 222b 56bd e677 35bd 7594 293d
00000220: 369b 4bbc 7774 09bd 8dcb 55be 6463 6ebb
00000230: 71a2 a53d 7c7d 46bd 0e78 5fbc cdba b63e
00000240: 84a5 413c ac87 ec3c bbc7 7e3d 6b11 fe3e
00000250: 5789 9dbe 5223 393e b000 8bbd 9d77 48bc
00000260: 5caf 053d 53a8 dc3c 6f5f 873c e968 36bd
00000270: 2c73 853d 88ad 66be 380b 43be efd4 9b3e
00000280: 6650 7d3d ac17 ccbe 523e 3a3c d989 223e
00000290: 6ef4 05bc 2599 31be 66cf f13d 3686 813d
000002a0: 8325 023e 992a 93bd 955b 8b3d 5afb 78be
000002b0: 228f 883b 60ba 73be b278 733d c2fe ad3c
000002c0: 3004 75bd 5fe3 88bc 7e95 8e3d 6644 b7bd
000002d0: add6 b23c c0cf 3f3d dcd9 d6bb 6995 553d
000002e0: 98fe 24bd 9ecf aabd 1ca7 1ebd d900 983d
000002f0: 5ded 1bbe 9ad3 d93b 5707 9a3e bf9f ee3b
00000300: 36cd 49bd 6fa9 a93c 7c12 5b3d 4644 88bd
00000310: ce26 e23c e98b 99bb d632 17bf 5ba4 f6bd
00000320: b1ff a13d 051f 463e 7105 03bd 8618 523d
00000330: af70 50bd 5ec3 69bc 8778 2c3e 57fb 243e
00000340: ad69 10bd e3e4 0f3d ac1d 44bd 3f45 733d
00000350: 9217 2dbf 989c 2abe b65e f83c 0f6c 7fbe
00000360: d9b7 93be 776c 09bf c4df 923e c6c5 a6bc
00000370: c4ab a03d 565b debd 1501 413b 7d46 a1bd
00000380: 0dec 0dbd 09b4 aa3e 1cef 27bd daae 2bbd
00000390: 54ed e6be ac36 c1bd b8f7 923d dc7d e1bd
000003a0: 4142 383e aa00 1abc b28b d7ba b339 013d
000003b0: 97b5 a33d 83dc 28bd 2016 823c d367 603b
000003c0: 68f8 37bd 54e6 393d 03ea 453e 7d04 4f3e
000003d0: fbb6 b23c 1496 95bc f055 b7b9 47d9 00be
000003e0: 28dc 2c3c 2562 0a3c 588e 303e 726f 3a3d
000003f0: a0ad b8bc 94d0 763e 14ad 3a3e 03fa 553c
-0.18995006 -0.09811354 0.057246823 -0.39862993 0.032118488 -0.075054914 0.049228176 -0.019918758
0.09424965 -0.08743641 -0.0522782 0.004794903 0.078911796 0.0035996344 0.0012757665 0.31018808
-0.0034156092 0.019198965 0.112871155 0.20275043 -0.1275855 0.46067372 0.04261317 -0.54669493
-0.0023097903 0.07608275 -0.47943553 -0.017864304 -0.07107822 -0.18567166 -0.17788465 0.07614461
0.0061583742 -0.27557236 -0.00052305346 0.08348015 -0.05245733 -0.26047182 0.08641456 -0.05265502
0.28668472 -0.14154574 0.083247654 -0.21623045 0.027420951 -0.17020324 -0.04039788 0.012258863
-0.066682376 0.08125633 -0.07672798 -0.1839592 0.0319563 0.1679397 -0.04196165 0.062937416
0.011890768 -0.01315774 -0.13441913 0.23539224 -0.049682487 0.044345368 0.3435373 -0.00037657126
-0.12896435 -0.023115136 0.017882066 0.082639016 -0.00073883584 0.0005446841 -0.1903396 -0.18164572
-0.015896386 0.09986359 0.008494284 0.020602055 0.006704565 -0.005046231 0.13106121 0.14354211
0.009847961 0.03002405 -0.06085498 0.015981738 -0.7744467 -0.36418527 0.033055577 -0.06446227
-0.34724966 -0.329876 0.16274357 0.0029582013 0.2529821 -0.19825424 -0.0014303107 -0.08645906
0.052012492 0.39695498 -0.00017248112 0.021167256 -0.53878325 -0.44106853 0.02658976 -0.6439409
0.24897988 0.059904575 6.236825e-05 -0.0019693524 0.21347517 0.008933325 -0.5079652 0.04129944
-0.0861263 0.116619244 0.095466994 0.17763308 -0.021317601 0.021250792 -0.043184005 -0.15631157
0.024941597 0.00014424 0.24578582 0.08634951 -0.018635184 0.33437517 0.001031144 0.0014531735
-0.018267026 -0.017813802 0.047466595 0.037206326 0.070379816 -0.05228723 -0.044303797 0.041401345
-0.012427142 -0.033558335 -0.2087843 -0.003637516 0.08087624 -0.048459515 -0.013639463 0.35689393
0.011819247 0.028873287 0.062202197 0.49622664 -0.30768844 0.1807988 -0.067872405 -0.012235549
0.03263794 0.026935732 0.016524998 -0.044533644 0.06516108 -0.22527134 -0.19047248 0.30435893
0.061844252 -0.3986181 0.011367397 0.15872897 -0.008175952 -0.17343576 0.11807136 0.06324427
0.12709622 -0.07185859 0.06804577 -0.24314633 0.0041674534 -0.23801565 0.059441276 0.021239642
-0.059818447 -0.016709981 0.06962107 -0.08948593 0.021830881 0.046828985 -0.0065567326 0.05214444
-0.040281862 -0.08340381 -0.038733587 0.07422037 -0.15227266 0.0066475393 0.30083725 0.007282227
-0.04926797 0.020710675 0.053484425 -0.06653647 0.027606394 -0.004685868 -0.59061944 -0.12043067
0.079100974 0.1934777 -0.03198761 0.05129292 -0.050888713 -0.014267771 0.16842853 0.16111504
-0.03525703 0.035130393 -0.04787986 0.05939221 -0.6761409 -0.16661298 0.0303186 -0.24943565
-0.28851202 -0.5368113 0.28686345 -0.020357978 0.07845262 -0.10857265 0.0029450108 -0.07874773
-0.034648944 0.3334048 -0.040999517 -0.0419148 -0.45102942 -0.09434256 0.07176155 -0.11010334
0.17994024 -0.009399572 -0.0016444831 0.031549167 0.0799362 -0.04122592 0.01587969 0.0034241572
-0.044914633 0.045385674 0.1932755 0.20216556 0.021815768 -0.01826004 -0.00034968508 -0.12582885
0.010550536 0.008446251 0.172418 0.04551644 -0.022543728 0.24103004 0.18230087 0.013060096

fc3.bias f4 [2]
00000000: 3aa0 c63d e2bc d03d
0.096985295 0.101922765
