model.pth (torch, 72372 bytes, 6 tensors)

fc1.weight f4 [128, 5]
0.07799129 -0.88453376 0.07492124 0.12521935 0.001468194 0.1500306 0.7225439 0.09369107
0.5239905 0.20678723 0.42323086 0.46595928 0.045138136 0.03998138 0.23837799 -0.2787622
-0.73097473 0.4711224 -0.37828675 -0.41024002 -0.43201798 -0.13399962 0.2672845 -0.31354535
0.28770557 0.105978556 1.3720418 -0.024260258 -0.42718676 -0.13848235 -0.08541198 0.017901955
-0.6219512 -0.0125649525 -0.123258814 0.19209442 0.39516354 0.10580531 0.3729863 -0.046313014
-0.14068341 -1.3248448 0.1212223 0.017067071 0.4761629 0.029983545 -1.819848 0.046429623
0.34129894 -0.019440603 0.32390872 0.39553514 0.1018978 -0.26386186 0.20878835 -0.023622602
0.7279342 -0.3814416 0.07316676 0.41433945 0.23558266 0.94199735 0.28604496 0.5382579
-0.41521016 -0.1176622 -0.36198205 0.2688068 0.53681797 0.062684655 0.26628527 -1.0524061
-0.21445818 0.33931658 0.031964436 -0.3399884 -1.326995 0.25422654 0.22436106 0.0313935
-0.17680794 0.06367753 -0.5216984 -0.5262713 -0.16319104 -0.103989825 -0.7232668 0.0043481505
0.3191145 0.48659265 -0.2660495 0.31010613 -0.4546251 -0.2150568 0.35129046 0.0464011
-0.75642616 0.001626795 -0.30431646 0.128214 0.20454143 1.3753843 0.48607737 -0.29171896
-0.16833724 -0.23461364 -0.11388165 0.16159958 0.27510452 -0.43989795 0.10657004 0.5832718
-0.368922 -0.05928748 0.3816673 0.26997045 1.3764125 -0.12755355 0.19287989 0.14482298
0.17940739 0.7889663 0.18153758 -0.4475641 -0.05354997 -0.06393186 -0.66293716 0.17886627
-0.5023094 0.4058167 -0.1225027 -0.9453437 0.09121839 0.10585301 -0.10824518 -0.14387678
-0.9683487 0.25522 0.17751399 -0.14628966 -0.086162336 0.17420089 0.27363923 0.4998754
-0.31254125 0.20178631 -1.5926092 -0.17008032 -0.01674132 0.30324584 0.13514346 0.059758455
0.26716015 -0.39432856 -0.057743236 0.071169674 0.22266006 0.24462649 0.28782752 0.40525803
0.20202585 -0.4276901 -0.104302056 0.167254 0.006655234 0.0824603 0.97713405 0.10024138
0.15038042 -0.0074916705 0.27785388 -0.5765803 0.29446745 0.059981257 0.3012367 -0.19198787
-0.50199574 -0.63440657 0.19463037 0.14382093 0.16344711 0.6275026 -0.21774907 -0.21851069
0.371131 -0.26016113 0.18239935 0.04158079 -0.32186267 0.48404634 0.16649306 0.5492951
0.11247671 -0.39583293 -0.08089447 0.2858554 -0.9794366 0.43402994 -0.11448756 0.115211375
-0.045290496 -0.66596514 -0.054045323 0.6312671 0.38780838 0.22575258 0.49987367 -0.057237204
0.3111813 -0.3686738 -0.3980686 -0.7939482 0.3345965 0.018716548 -0.17487758 -0.049057234
-0.53117454 -0.19762045 0.47561654 -0.06809771 -0.02791105 -1.470858 -0.018047517 0.28405914
0.117220975 -0.17885987 -1.6810756 0.12552051 0.06593426 0.44014698 -0.33302373 0.40218005
0.35617548 0.47694454 0.18588783 0.05465392 1.0136559 0.109688334 -0.007825144 -0.1771079
0.12231083 -1.7608752 0.22656935 0.35194746 0.009430129 0.16821401 -0.87501734 0.4378176
0.223299 0.3455921 0.42489567 1.316444 -0.16279209 0.04142385 0.20098306 -0.19837339
00000000: e6b9 9f3d ce70 62bf 4f70 993d 8039 003e
00000010: 6a70 c03a 9fa1 193e a3f8 383f 1be1 bf3d
00000020: 3e24 063f 08c0 533e b7b1 d83e 3792 ee3e
00000030: c4e2 383d 84c3 233d 5c19 743e ebb9 8ebe
00000040: 2921 3bbf f536 f13e cdae c1be fb0a d2be
00000050: 7631 ddbe 3237 09be 84d9 883e 0489 a0be
00000060: 254e 933e 490b d93d 119f af3f 73bd c6bc
00000070: 39b8 dabe 51ce 0dbe 7aec aebd 1fa7 923c
00000080: 3238 1fbf 3bdd 4dbc 1e6f fcbd 66b4 443e
00000090: e052 ca3e 74b0 d83d 0ff8 be3e b7b2 3dbd
000000a0: 500f 10be 8494 a9bf 6643 f83d 3ed0 8b3c
000000b0: a0cb f33e 0da0 f53c c7f0 e8bf fd2c 3e3d
000000c0: bcbe ae3e e641 9fbc 5dd7 a53e 9583 ca3e
000000d0: cbaf d03d e718 87be 9dcc 553e 3084 c1bc
000000e0: e559 3a3f 504c c3be 74d8 953d 4d24 d43e
000000f0: 953c 713e bd26 713f 7c74 923e 45cb 093f
00000100: 6d96 d4be e1f8 f0bd b655 b9be 0ba1 893e
00000110: e76c 093f d060 803d 8b56 883e 3eb5 86bf
00000120: ed9a 5bbe e7ba ad3e 24ed 023d f612 aebe
00000130: f9da a9bf fb29 823e e8be 653e 7896 003d
00000140: 240d 35be 5d69 823d 078e 05bf b7b9 06bf
00000150: 8d1b 27be 9ef8 d4bd 0328 39bf ee7a 8e3b
00000160: fa62 a33e ac22 f93e a437 88be 3bc6 9e3e
00000170: 9fc4 e8be da37 5cbe 58dc b33e 140f 3e3d
00000180: 25a5 41bf 2f3a d53a 5ecf 9bbe 884a 033e
00000190: 4f73 513e 980c b03f 22df f83e 305c 95be
000001a0: 9960 2cbe 8f3e 70be c83a e9bd 5c7a 253e
000001b0: 80da 8c3e 4e3a e1be 6541 da3d 4d51 153f
000001c0: 58e3 bcbe 6ed7 72bd e569 c33e 9139 8a3e
000001d0: 492e b03f 669d 02be 4e82 453e 7a4c 143e
000001e0: 92b6 373e b2f9 493f fde4 393e 1f27 e5be
000001f0: 3757 5bbd b5ee 82bd 40b6 29bf b828 373e
00000200: 5997 00bf 35c7 cf3e b2e2 fabd 0b02 72bf
00000210: b5d0 ba3d 77c9 d83d a6af ddbd 6f54 13be
00000220: b3e5 77bf 32ac 823e 3ac6 353e f5cc 15be
00000230: e175 b0bd b861 323e 711a 8c3e abef ff3e
00000240: 6805 a0be 12a1 4e3e 9eda cbbf 8929 2ebe
00000250: 1825 89bc 0a43 9b3e 0c63 0a3e 48c5 743d
00000260: 37c9 883e 6fe5 c9be 2c84 6cbd 68c1 913d
00000270: 0001 643e 5e7f 7a3e 215e 933e fb7d cf3e
00000280: dddf 4e3e 32fa dabe 519c d5bd a244 2b3e
00000290: 2614 da3b f2e0 a83d 7525 7a3f 5a4b cd3d
000002a0: 53fd 193e b07c f5bb dd42 8e3e c49a 13bf
000002b0: 70c4 963e e8ae 753d b23b 9a3e 7898 44be
000002c0: cb82 00bf 7868 22bf 2f4d 473e cb45 133e
000002d0: ae5e 273e 03a4 203f 9df9 5ebe 44c1 5fbe
000002e0: e204 be3e d733 85be e5c6 3a3e 9e50 2a3d
000002f0: 2fcb a4be ecd4 f73e 287d 2a3e 9b9e 0c3f
00000300: 305a e63d 9daa cabe 00ac a5bd a45b 923e
00000310: 5bbc 7abf 2c39 de3e 7478 eabd f1f3 eb3d
00000320: 8782 39bd b17c 2abf a15e 5dbd b89a 213f
00000330: d28e c63e af2b 673e 71ef ff3e 8f71 6abd
00000340: 2853 9f3e d0c2 bcbe a6cf cbbe 3040 4bbf
00000350: 3c50 ab3e 7253 993c 1c13 33be 3df0 48bd
00000360: 0efb 07bf 045d 4abe 0384 f33e d076 8bbd
00000370: b7a5 e4bc 1345 bcbf 63d8 93bc 3370 913e
00000380: 8d11 f03d 0b27 37be 7c2d d7bf 7388 003e
00000390: 8b08 873d f25a e13e 1682 aabe 8bea cd3e
000003a0: a25c b63e 1332 f43e 6159 3e3e cadc 5f3d
000003b0: 7abf 813f 47a4 e03d 0835 00bc c65b 35be
000003c0: 1a7e fa3d 5c64 e1bf cc01 683e 7532 b43e
000003d0: d480 1a3c 4b40 2c3e 2301 60bf a129 e03e
000003e0: 7ea8 643e 73f1 b03e ed8b d93e 3d81 a83f
000003f0: f8b2 26be 0eac 293d 81ce 4d3e 6522 4bbe

fc1.bias f4 [128]
0.3344745 -0.1108317 -0.24453399 -0.22643013 -0.30302742 -0.18142712 -0.012824778 0.31553262
-0.40163225 -0.3784784 -0.038224857 0.27724564 0.03591337 -0.32995424 0.009722644 0.043706026
0.1425134 0.056123294 0.35418487 0.23068973 0.08411193 0.023286253 0.14099845 -0.053518247
0.03176774 0.15998448 0.4236242 -0.4640377 0.086200215 0.16507865 0.17901142 -0.3169417
0.0154857375 0.47685334 0.106324196 0.48161718 0.5415876 0.2902125 -0.031411372 0.036541168
0.12004965 0.08769884 0.3508879 0.21756205 -0.1843048 -0.2498981 -0.23720671 0.06951956
0.29993626 -0.34531277 0.03519307 -0.5220913 -0.23855938 0.3061545 0.00018895585 -0.46156868
0.23067826 -0.21010174 0.24692042 0.20332243 -0.054594114 0.12918526 0.02592408 -0.12380118
0.05698364 -0.09966106 0.3939352 -0.38115358 0.02375285 0.12458652 0.3893609 0.3901446
0.43489173 0.40195104 -0.31030574 -0.052222043 -0.22638154 -0.26465142 -0.072204106 -0.26471588
0.15318346 -0.2816621 0.23924898 -0.36965036 0.08717467 -0.24768655 0.11907938 0.0030224032
0.42546415 -0.31868947 -0.20752734 0.09574624 -0.22551946 -0.07801252 0.28148606 -0.16161413
0.36459592 0.0390357 0.34835112 -0.11120096 -0.47015932 -0.16262339 0.40297797 0.070741095
0.24761467 -0.113046326 0.3036471 0.36410296 0.087702215 -0.2105424 -0.044267282 0.1684938
0.16478913 0.12213409 -0.16456422 -0.33219403 0.07992552 -0.25962657 0.27894512 -0.15526704
-0.2463918 -0.062915064 -0.28797272 -0.08188184 0.026272478 0.43222854 0.3950764 0.3935518
00000000: 3e40 ab3e bbfb e2bd 1e67 7abe 4ddd 67be
00000010: 6926 9bbe 08c8 39be 051f 52bc 7e8d a13e
00000020: bea2 cdbe ecc7 c1be ab91 1cbd 24f3 8d3e
00000030: e619 133d c3ef a8be ba4b 1f3c 1705 333d
00000040: 08ef 113e 8ae1 653d b857 b53e ee39 6c3e
00000050: e042 ac3d d0c2 be3c e661 103e f335 5bbd
00000060: e41e 023d f9d2 233e 45e5 d83e 5996 edbe
00000070: bd89 b03d 610a 293e c54e 373e 2f46 a2be
00000080: e4b7 7d3c 1f26 f43e 80c0 d93d 8796 f63e
00000090: 7ca5 0a3f bc96 943e 36a9 00bd 31ac 153d
000000a0: 97dc f53d 739b b33d 94a7 b33e 96c8 5e3e
000000b0: 66ba 3cbe 4ae5 7fbe 51e6 72be 4560 8e3d
000000c0: 3f91 993e d6cc b0be 9c26 103d c7a7 05bf
000000d0: e948 74be 48c0 9c3e 7322 4639 bb52 ecbe
000000e0: ec36 6c3e e924 57be b5d8 7c3e c133 503e
000000f0: 149e 5fbd 2449 043e bc5e d43c 798b fdbd
00000100: ad67 693d 191b ccbd e0b1 c93e 9026 c3be
00000110: 5695 c23c 3827 ff3d 505a c73e 08c1 c73e
00000120: 21aa de3e 87cc cd3e 65e0 9ebe c8e6 55bd
00000130: 90d0 67be 6480 87be bfdf 93bd d788 87be
00000140: 20dc 1c3e 0436 90be affd 743e d042 bdbe
00000150: a288 b23d 8ba1 7dbe e4df f33d 8313 463b
00000160: 70d6 d93e 442b a3be 0c82 54be 9b16 c43d
00000170: 93ee 66be 07c5 9fbd f11e 903e 2d7e 25be
00000180: 51ac ba3e e6e3 1f3d 145b b23e 54bd e3bd
00000190: b9b8 f0be bf86 26be 2153 ce3e b5e0 903d
000001a0: b38e 7d3e d584 e7bd a277 9b3e b46b ba3e
000001b0: 389d b33d 6d98 57be 9c51 35bd a489 2c3e
000001c0: 7bbe 283e 7021 fa3d 8683 28be 5615 aabe
000001d0: feaf a33d c6ed 84be e5d1 8e3e 53fe 1ebe
000001e0: 224e 7cbe 9dd9 80bd 2971 93be abb1 a7bd
000001f0: 6139 d73c 0f4d dd3e 7447 ca3e 9f7f c93e

fc2.weight f4 [128, 128]
-0.061418902 -0.02373743 -0.061149392 0.019062636 -0.08625853 -0.08403765 0.13219813 0.014576709
0.025288241 0.15769377 -0.08409174 -0.055979937 0.09138488 0.019715223 0.05315204 0.014052938
0.28378952 0.037356418 0.07376203 -0.06523297 0.063958436 -0.073424645 0.03799714 -0.03953272
0.02943545 0.05248203 0.07690868 0.041692074 0.100403965 -0.0533801 -0.07226143 0.06455635
0.1630809 -0.18160093 0.032945227 -0.3687188 -0.11230166 -0.08017699 0.0013668645 0.03509252
0.024090203 0.07449309 0.05936282 -0.1821001 -0.028880645 0.117296025 0.0023929516 0.12155832
-0.03395413 0.047311697 -0.038154386 0.115017615 -0.0323585 0.028742567 -0.14954618 -0.11021432
0.04277962 0.072080664 0.12912695 0.08552204 0.04191112 0.15602276 0.0035540925 0.21342835
0.022130882 -0.09729879 0.059867896 -0.10895169 0.03046265 -0.057687044 0.07167604 -0.041283637
0.030039161 0.21868575 -0.10209569 -0.083401844 0.073824465 0.061650548 0.12529278 0.039396573
-0.060984865 0.037365336 0.11655047 0.21193129 -0.0028839507 -0.27654946 -0.042204663 0.0026559958
-0.015008427 0.019938357 -0.002351177 -0.019232951 -0.050053902 -0.13533083 0.048808515 0.048208676
-0.023769563 -0.089663185 0.045237012 -0.04108181 0.025400577 0.030694682 -0.034892526 0.022219675
-0.035819504 -0.060371708 0.05041429 -0.029206011 -0.013748251 0.013483361 0.064986005 -0.06740367
-0.0073649096 0.06408287 -0.0092526525 0.036249444 -0.39645165 0.051738217 0.011862733 -0.040805418
0.029061915 0.047300283 0.12489965 0.19983199 -0.096549936 -0.39814758 0.05095508 -0.06717561
-0.03405815 -0.018706612 0.01624097 0.025308095 -0.08378325 -0.07361926 0.009946741 0.063248105
0.0113468915 0.033685513 0.06441731 0.030630864 0.028547272 -0.005386144 -0.012669936 0.040147178
-0.0796834 0.010665618 -0.012665413 -0.04899113 -0.0058603436 -0.08515809 -0.04227999 0.043070503
0.06441789 -0.018166408 -0.032350823 -0.0458723 -0.07942757 -0.08578577 -0.050899506 -0.07318416
0.0071464106 0.010869071 -0.072416395 0.034328647 0.06933712 0.02540952 0.04257051 -0.060381964
-0.07214789 0.064927734 0.06241239 -0.0133484155 -0.03152027 -0.038772076 -0.02288308 -0.039140176
0.05727469 0.03381449 -0.030214537 -0.006752439 0.059828006 0.020475581 -0.0015246198 -0.0039759204
0.04104968 -0.059208967 0.04990522 0.07986476 -0.037938748 0.044541918 -0.030988522 -0.06408134
-0.085160464 0.040823407 -0.06309508 -0.026086498 0.07872131 -0.003026098 0.07590199 -0.0018539354
0.031990595 -0.06623903 -0.07258494 0.061532564 -0.05778844 -0.01613418 -0.08292866 0.075153165
0.035672165 -0.016106024 -0.01913964 -0.0061386004 -0.01845429 -0.04915668 0.05345183 0.0011607632
0.045316316 -0.031694926 -0.043204542 -0.042048562 -0.037248287 0.050781645 -0.03625805 -0.016280413
0.04203359 -0.025467262 0.0020613521 0.012360372 0.016825296 -0.030789465 -0.03975771 0.03154718
0.0539319 -0.055551916 0.081166975 -0.017406479 0.0024144575 0.046568327 -0.064376086 -0.04722395
0.036128245 -0.028412886 0.07730339 -0.064134575 0.0070554987 0.039824 0.08718949 -0.06090857
-0.076814346 -0.0367045 0.08374905 0.04099024 0.029719636 0.06409722 -0.07257641 -0.015997775
00000000: 6392 7bbd 0075 c2bc c977 7abd 3f29 9c3c
00000010: 50a8 b0bd ee1b acbd f25e 073e 26d3 6e3c
00000020: 4929 cf3c 7a7a 213e 4a38 acbd 384b 65bd
00000030: ff27 bb3d d281 a13c f4b5 593d 4b3e 663c
00000040: dc4c 913e 0b03 193d 8c10 973d dd98 85bd
00000050: a4fc 823d a95f 96bd e4a2 1b3d 10ed 21bd
00000060: 9d22 f13c 66f7 563d 4c82 9d3d 4fc5 2a3d
00000070: 98a0 cd3d 17a5 5abd cdfd 93bd 1f36 843d
00000080: aefe 263e 98f5 39be 93f1 063d b6c8 bcbe
00000090: 6afe e5bd d533 a4bd 5d28 b33a 2dbd 0f3d
000000a0: d158 c53c d58f 983d 6e26 733d 7378 3abe
000000b0: 1a97 ecbc e638 f03d 11d3 1c3b 92f3 f83d
000000c0: 7c13 0bbd e9c9 413d c647 1cbd 5b8e eb3d
000000d0: 598a 04bd 8875 eb3c a222 19be 0cb8 e1bd
000000e0: af39 2f3d 079f 933d db39 043e 2e26 af3d
000000f0: ffaa 2b3d 6ec4 1f3e c7eb 683b f68c 5a3e
00000100: d34b b53c 9744 c7bd 0a38 753d 1022 dfbd
00000110: cf8c f93c 4049 6cbd e3ca 923d 0819 29bd
00000120: b014 f63c 28ef 5f3e 8c17 d1bd 96ce aabd
00000130: 4831 973d 4985 7c3d c04c 003e 4d5e 213d
00000140: 44cb 79bd 650c 193d 03b2 ee3d 8404 593e
00000150: aa00 3dbb e497 8dbe ccde 2cbd 3710 2e3b
00000160: e8e5 75bc c455 a33c 3416 1abb 6c8e 9dbc
00000170: 5205 4dbd 2a94 0abe 70eb 473d 7676 453d
00000180: 63b8 c2bc 55a1 b7bd 724a 393d 6645 28bd
00000190: df14 d03c 6a73 fb3c 77eb 0ebd 0906 b63c
000001a0: 79b7 12bd 5348 77bd 377f 4e3d 7241 efbc
000001b0: 5840 61bc 51e9 5c3c 6217 853d ef0a 8abd
000001c0: 5755 f1bb e13d 833d 7098 17bc 4c7a 143d
000001d0: b6fb cabe 74eb 533d e95b 423c 9523 27bd
000001e0: 4113 ee3c f1bd 413d 63cb ff3d c2a0 4c3e
000001f0: f9bb c5bd 00da cbbe 46b6 503d 5e93 89bd
00000200: 8f80 0bbd 9c3e 99bc c80b 853c ec52 cf3c
00000210: 8d96 abbd b2c5 96bd a8f7 223c 3988 813d
00000220: 50e8 393c d2f9 093d 39ed 833d 94ed fa3c
00000230: f8db e93c 407e b0bb 9095 4fbc 5e71 243d
00000240: 0d31 a3bd d8be 2e3c 9882 4fbc ecaa 48bd
00000250: 2008 c0bb 5d67 aebd c82d 2dbd b26a 303d
00000260: 87ed 833d b8d1 94bc 4c82 04bd 98e4 3bbd
00000270: ecaa a2bd 73b0 afbd 007c 50bd 94e1 95bd
00000280: 702c ea3b 3014 323c 0c4f 94bd 329c 0c3d
00000290: 9f00 8e3d a027 d03c 6a5e 2e3d 1453 77bd
000002a0: 46c2 93bd d5f8 843d 22a4 7f3d 50b3 5abc
000002b0: 661b 01bd 78cf 1ebd 4c75 bbbc 7351 20bd
000002c0: de98 6a3d 1081 0a3d 7a84 f7bc 9043 ddbb
000002d0: 360e 753d 68bc a73c c0d5 c7ba 7048 82bb
000002e0: b623 283d 1a85 72bd 6a69 4c3d 2390 a33d
000002f0: a965 1bbd 9671 363d a4db fdbc 143d 83bd
00000300: 9c68 aebd 7236 273d fe37 81bd 5ab3 d5bc
00000310: a338 a13d 8051 46bb 8172 9b3d c0ff f2ba
00000320: 9208 033d 54a8 87bd 6aa7 94bd 9209 7c3d
00000330: 92b3 6cbd d42b 84bc 80d6 a9bd e7e9 993d
00000340: fa1c 123d c8f0 83bc bcca 9cbc 5026 c9bb
00000350: 742d 97bc 8458 49bd 4ef0 5a3d c024 983a
00000360: 9a9d 393d 8ad2 01bd 3ff7 30bd 1d3b 2cbd
00000370: a991 18bd 6a00 503d 5283 14bd 805e 85bc
00000380: 6a2b 2c3d b8a0 d0bc c017 073b 2883 4a3c
00000390: 34d5 893c 303a fcbc fbd8 22bd 9e37 013d
000003a0: b2e7 5c3d 688a 63bd df3a a63d 0898 8ebc
000003b0: e03b 1e3b 6ebe 3e3d 9cd7 83bd e76d 41bd
000003c0: 36fb 133d 24c2 e8bc 3d51 9e3d fd58 83bd
000003d0: d031 e73b 7e1e 233d 6790 b23d 447b 79bd
000003e0: d750 9dbd 7557 16bd 9f84 ab3d 62e5 273d
000003f0: 9876 f33c 6745 833d f1a2 94bd c40d 83bc

fc2.bias f4 [128]
-0.01740368 -0.038570605 -0.04506056 0.0822899 -0.042439394 -0.10191156 0.074264266 0.0076821866
0.06642523 -0.060762443 -0.027200762 -0.071542375 -0.058972627 -0.06739233 0.012431795 -0.08925046
-0.05790752 -0.1625869 0.045692794 -0.08349977 -0.0022691311 -0.13216275 0.11056876 0.010821363
0.08335603 0.08656133 0.038685177 0.019489028 0.03469231 0.055622716 -0.009430424 -0.01631081
-0.013026632 0.109335 -0.015117525 0.056521572 0.097468786 -0.13051984 0.07763351 0.010237328
-0.097439334 -0.12294509 0.007431016 -0.10800074 -0.02218552 -0.05789119 -0.044778567 0.0069556287
0.015791882 0.0563451 -0.13286753 0.040025372 -0.013792946 0.07966497 -0.08552261 0.1337332
0.049780417 0.12478812 0.08201241 -0.021017056 -0.053080693 -0.0948875 0.10499646 -0.023079708
0.15044199 -0.0061746854 -0.107820556 -0.07260699 0.06159836 -0.025580464 0.04658267 -0.09704035
0.13425995 0.08927119 0.03900466 0.03418178 -0.012735046 0.05882662 -0.034530394 -0.010347199
0.021159433 0.061951503 0.08519927 -0.119321525 0.040314306 -0.019843293 0.10127754 -0.012233779
-0.025675837 -0.06748305 -0.031271443 0.003215043 -0.03425663 -0.05511079 0.07143123 0.11392205
-0.046663366 0.09497435 0.1245334 -0.18460922 0.06019379 -0.0019465971 0.08583766 -0.037981883
0.076289475 0.11093771 0.14561188 0.1152833 0.050257258 0.004802693 -0.0016947463 0.0793193
-0.0295963 0.03173809 -0.09379712 0.06587806 -0.08049103 -0.008857117 -0.033535376 -0.04595975
0.014567018 0.045405272 -0.060999468 0.120607324 -0.031274933 0.04765242 0.15679537 0.046230633
00000000: 2a92 8ebc 36fc 1dbd 6c91 38bd 9b87 a83d
00000010: eed4 2dbd 02b7 d0bd dd17 983d daba fb3b
00000020: f309 883d 0ae2 78bd 22d4 debc cf84 92bd
00000030: 488d 71bd fd04 8abd baae 4b3c f2c8 b6bd
00000040: 7030 6dbd 2e7d 26be 5e28 3b3d ed01 abbd
00000050: b4b5 14bb ac55 07be e071 e23d 164c 313c
00000060: 91b6 aa3d 1147 b13d 5974 1e3d 74a7 9f3c
00000070: 8619 0e3d a5d4 633d 1182 1abc 3f9e 85bc
00000080: a86d 55bc 07eb df3d 7faf 77bc 2a83 673d
00000090: b79d c73d fea6 05be 51fe 9e3d 77ba 273c
000000a0: 468e c7bd a3ca fbbd e17f f33b 7e2f ddbd
000000b0: 68be b5bc 501f 6dbd bb69 37bd 0bec e33b
000000c0: fa5d 813c 1fca 663d 6d0e 08be a5f1 233d
000000d0: cffb 61bc 6327 a33d 7a26 afbd 5bf1 083e
000000e0: 8de6 4b3d ea90 ff3d 1ff6 a73d f62b acbc
000000f0: 246b 59bd 6154 c2bd 6208 d73d a811 bdbc
00000100: 770d 1a3e 0455 cabb 06d1 dcbd f9b2 94bd
00000110: 904e 7c3d 1f8e d1bc 78cd 3e3d 17bd c6bd
00000120: 717b 093e d0d3 b63d 5ac3 1f3d 3202 0c3d
00000130: a8a6 50bc 2ff4 703d be6f 0dbd 4c87 29bc
00000140: 8c56 ad3c dcc0 7d3d f47c ae3d d85e f4bd
00000150: 9d20 253d 678e a2bc 996a cf3d 3070 48bc
00000160: 2256 d2bc 8e34 8abd 7c16 00bd 79b3 523b
00000170: ae50 0cbd dabb 61bd 894a 923d f74f e93d
00000180: 1622 3fbd e981 c23d 5e0b ff3d 330a 3dbe
00000190: c38d 763d f624 ffba a8cb af3d e492 1bbd
000001a0: a83d 9c3d 4f33 e33d 481b 153e a719 ec3d
000001b0: 8eda 4d3d e95f 9d3b 4022 deba 2872 a23d
000001c0: f173 f2bc cdff 013d b418 c0bd 14eb 863d
000001d0: 7bd8 a4bd 711d 11bc 645c 09bd 4a40 3cbd
000001e0: 80aa 6e3c e1fa 393d 94da 79bd f900 f73d
000001f0: 251a 00bd 2f2f 433d f78e 203e 555c 3d3d

fc3.weight f4 [2, 128]
-0.117309496 -0.073745966 0.05764445 -0.010484047 -0.042828776 -0.1398805 0.014219388 0.1327536
-0.28037718 -0.09577431 0.052646313 -0.2835646 0.14862736 -0.06368827 0.19722134 0.10683777
-0.063939065 0.23909733 -0.21553524 -0.048281573 -0.035528135 -0.06587486 0.16947892 0.14865507
0.02338244 0.0960968 -0.1083701 0.07725454 -0.1505191 0.09804036 -0.14387667 0.2312025
0.05462783 0.18403095 -0.12476123 -0.06133462 0.09116229 -0.023965804 0.21736467 0.07875325
-0.09773465 -0.30088264 -0.27797565 -0.18811916 0.07397079 0.011630662 0.00066881476 0.042260416
0.06570118 0.06634369 -0.16642433 0.12683378 0.25502604 -0.28025863 0.009844558 -0.2990026
-0.5478262 -0.620829 0.32022503 0.077883884 0.131605 0.08459466 -0.5935035 -0.072095335
-0.23488072 0.20389253 0.104409635 -0.09829996 -0.06647614 0.21372707 0.14734098 0.02724585
-0.06192041 0.110069565 -0.7312646 0.008048307 0.076262556 -0.27800038 0.0490629 -0.30489752
-0.22360975 0.22650537 0.1468508 0.18261147 0.08949026 -0.047769997 0.12626325 0.07283049
0.07501954 0.060788114 0.06422181 -0.025215834 0.09000695 -0.10218589 -0.26745135 0.2109215
0.019851249 0.10532135 0.02743251 -0.14963163 -0.35005414 0.17903191 0.09606765 -0.30536318
0.11062772 0.09059396 0.14722584 0.23184516 0.084042266 0.13584876 -0.026961096 -0.31395194
-0.06849716 0.30150306 -0.10633075 -0.34705937 -0.03564556 0.30455536 -0.2264887 -0.15386163
0.17482008 -0.22088641 0.008669175 0.18878402 0.113025874 -1.1671388 -0.3424668 0.059873335
0.108920716 -0.08734982 -0.47746632 -0.051399697 0.15401815 0.08508976 0.04922021 0.33766577
-0.06764255 0.16066124 -0.11483188 0.07754398 0.04486198 -0.07212489 0.042247165 0.014815083
0.18297967 0.10564686 0.08450307 0.08459758 0.043796156 -0.18349946 0.044878326 0.1468058
-0.026164193 -0.037751783 0.03496653 0.07192131 -0.06271278 0.2661423 0.04743637 0.3026046
-0.069948696 0.21085304 -0.12724937 0.08703899 0.2902728 -0.21607575 0.3195322 0.08287156
-0.19329129 -0.09612453 0.11100542 -0.09693428 -0.08141711 0.0473023 0.003752388 -0.016386153
-0.03209105 -0.035072077 -0.23354316 0.06328438 0.12980121 -0.09251363 -0.002080597 -0.077399716
-0.13657288 -0.2650073 0.06583511 0.055803087 0.05635227 0.27145913 -0.22500572 -0.06278712
0.15619738 0.10708492 -0.15443458 -0.03302005 -0.22428572 0.08328687 0.014268485 -0.27520153
-0.17714758 0.19509688 0.10182092 -0.078992225 0.054287322 -0.0097895805 0.042350486 -0.17199557
-0.18894558 0.18143672 -0.061183244 -0.16546169 -0.1832623 0.04993338 0.24148929 0.051229067
0.09314268 0.05329459 -0.030821893 0.052145753 0.13622312 0.15488087 0.106598884 0.28722325
0.12334144 -0.09691084 0.15670171 -0.35887682 0.016560698 -0.080727436 0.1851509 -0.1429281
0.10180704 0.11127899 0.0014599424 0.11488051 -0.66548944 0.039380163 -0.07034803 -0.22537218
-0.04198153 -0.066074245 -0.2376368 0.04760201 0.078213 0.09980191 0.05655892 0.0117058195
0.15218258 -0.019874785 0.04249946 0.33156794 -0.006236782 -0.49075577 -0.23048528 0.21552004
00000000: f63f f0bd 2008 97bd 961c 6c3d 48c5 2bbc
00000010: 3a6d 2fbd d53c 0fbe 70f8 683c 8ff0 073e
00000020: 998d 8fbe 5225 c4bd a9a3 573d 612f 91be
00000030: c531 183e ff6e 82bd 64f4 493e c3cd da3d
00000040: 7cf2 82bd eed5 743e 45b5 5cbe e6c2 45bd
00000050: f385 11bd 66e9 86bd e28b 2d3e 0939 183e
00000060: 888c bf3c 66ce c43d 25f1 ddbd a137 9e3d
00000070: ae21 1abe 62c9 c83d 6854 13be 59c0 6c3e
00000080: 6ec1 5f3d 9c72 3c3e d182 ffbd 033a 7bbd
00000090: 4bb3 ba3d ef53 c4bc d894 5e3e 6249 a13d
000000a0: 1b29 c8bd 4a0d 9abe d352 8ebe 4fa2 40be
000000b0: ff7d 973d 888e 3e3c 6653 2f3a 4219 2d3d
000000c0: 578e 863d 33df 873d 246b 2abe b7e0 013e
000000d0: c692 823e 0f7e 8fbe 124b 213c de16 99be
000000e0: 563e 0cbf a6ee 1ebf 89f4 a33e 9681 9f3d
000000f0: 76c3 063e f73f ad3d d8ef 17bf b8a6 93bd
00000100: 9284 70be 34c9 503e b8d4 d53d 7d51 c9bd
00000110: a424 88bd 45db 5a3e 8ee0 163e b032 df3c
00000120: 41a0 7dbd 276c e13d 2834 3bbf 0cdd 033c
00000130: 8b2f 9c3d 1156 8ebe 2ef6 483d 871b 9cbe
00000140: f4f9 64be 06f1 673e 0e60 163e 80fe 3a3e
00000150: ab46 b73d 79aa 43bd 274b 013e 2728 953d
00000160: d8a3 993d f5fc 783d b986 833d 7091 cebc
00000170: 9055 b83d d646 d1bd 62ef 88be cefb 573e
00000180: 169f a23c b8b2 d73d 25ba e03c 0939 19be
00000190: 4c3a b3be 2454 373e 1ebf c43d 9058 9cbe
000001a0: c990 e23d 5389 b93d 5fc2 163e d168 6d3e
000001b0: 5a1e ac3d f01b 0b3e 84dd dcbc 4fbe a0be
000001c0: 3d48 8cbd 9c5e 9a3e f0c3 d9bd c4b1 b1be
000001d0: 1401 12bd aeee 9b3e a7ec 67be e78d 1dbe
000001e0: 0904 333e 0c30 62be 2809 0e3c 9950 413e
000001f0: 1c7a e73d ce64 95bf cf57 afbe be3d 753d
00000200: d311 df3d 76e4 b2bd 7776 f4be 7d88 52bd
00000210: efb6 1d3e 8a43 ae3d 229b 493d 87e2 ac3e
00000220: 2d88 8abd 6184 243e fa2c ebbd 61cf 9e3d
00000230: 32c1 373d 37b6 93bd 5d0b 2d3d f6ba 723c
00000240: 065f 3b3e 625d d83d f20f ad3d 7f41 ad3d
00000250: 9963 333d 48e7 3bbe 56d2 373d 4254 163e
00000260: 4a56 d6bc 9da1 1abd 1039 0f3d 7b4b 933d
00000270: 8f6f 80bd ce43 883e a44c 423d fdee 9a3e
00000280: 4341 8fbd dce9 573e a94d 02be 7f41 b23d
00000290: a39e 943e f642 5dbe b999 a33e 90b8 a93d
000002a0: 27ee 45be f0dc c4bd cf56 e33d 7b85 c6bd
000002b0: 04be a6bd 0ec0 413d a0ea 753b 413c 86bc
000002c0: e871 03bd bda7 0fbd f025 6fbe 3e9b 813d
000002d0: 9cea 043e c977 bdbd a05a 08bb be83 9ebd
000002e0: c3d9 0bbe 09af 87be 8fd4 863d c791 643d
000002f0: a3d1 663d b1fc 8a3e e667 66be 8996 80bd
00000300: 35f2 1f3e 574f db3d 1924 1ebe 0840 07bd
00000310: 28ab 65be 4e92 aa3d 5dc6 693c 37e7 8cbe
00000320: 2d66 35be 7ac7 473e 7d87 d03d adc6 a1bd
00000330: 625c 5e3d 7a64 20bc b477 2d3d 9b1f 30be
00000340: f37a 41be 8cca 393e 489b 7abd ca6e 29be
00000350: 1da9 3bbe f286 4c3d f848 773e 92d5 513d
00000360: 97c1 be3d 6e4b 5a3d 327e fcbc c996 553d
00000370: 137e 0b3e 1799 1e3e 8450 da3d ed0e 933e
00000380: 709a fc3d 3179 c6bd 6a76 203e b4be b7be
00000390: 4daa 873c 6d54 a5bd 3398 3d3e be5b 12be
000003a0: 3680 d03d 3de6 e33d 8a5b bf3a 7946 eb3d
000003b0: 845d 2abf 184d 213d a112 90bd f7c7 66be
000003c0: d3f4 2bbd ef51 87bd 1057 73be 53fa 423d
000003d0: 232e a03d f264 cc3d 53aa 673d c4c9 3f3c
000003e0: c0d5 1b3e 72d0 a2bc ea13 2e3d 46c3 a93e
000003f0: eb5d ccbb 5744 fbbe 5504 6cbe 49b1 5c3e

fc3.bias f4 [2]
-0.023770163 -0.021192398
00000000: a5b9 c2bc ae9b adbc
